…
        "        param.require_grad = False\n",
        "    i+=1\n",
        "\n",
        "features = [nn.Linear(num_features, 69*10+100), \n",
        "            nn.ReLU(inplace=True), \n",
        "            nn.Dropout(p=0.5, inplace=False), \n",
        "            nn.Linear(69*10+100, 3)]\n",
        "vgg16_3.classifier = nn.Sequential(*features)\n",
        "vgg16_3.to(device)"
      ],
      "execution_count": 0,
      "outputs": [
        {
          "output_type": "execute_result",
          "data": {
            "text/plain": [
              "VGG(\n",
              "  (features): Sequential(\n",
              "    (0): Conv2d(3, 64, kernel_size=(3, 3), stride=(1, 1), padding=(1, 1))\n",
              "    (1): ReLU(inplace=True)\n",
              "    (2): Conv2d(64, 64, kernel_size=(3, 3), stride=(1, 1), padding=(1, 1))\n",
              "    (3): ReLU(inplace=True)\n",
              "    (4): MaxPool2d(kernel_size=2, stride=2, padding=0, dilation=1, ceil_mode=False)\n",
              "    (5): Conv2d(64, 128, kernel_size=(3, 3), stride=(1, 1), padding=(1, 1))\n",
              "    (6): ReLU(inplace=True)\n",
              "    (7): Conv2d(128, 128, kernel_size=(3, 3), stride=(1, 1), padding=(1, 1))\n",
              "    (8): ReLU(inplace=True)\n",
              "    (9): MaxPool2d(kernel_size=2, stride=2, padding=0, dilation=1, ceil_mode=False)\n",
              "    (10): Conv2d(128, 256, kernel_size=(3, 3), stride=(1, 1), padding=(1, 1))\n",
              "    (11): ReLU(inplace=True)\n",
              "    (12): Conv2d(256, 256, kernel_size=(3, 3), stride=(1, 1), padding=(1, 1))\n",
              "    (13): ReLU(inplace=True)\n",
              "    (14): Conv2d(256, 256, kernel_size=(3, 3), stride=(1, 1), padding=(1, 1))\n",
              "    (15): ReLU(inplace=True)\n",
              "    (16): MaxPool2d(kernel_size=2, stride=2, padding=0, dilation=1, ceil_mode=False)\n",
              "    (17): Conv2d(256, 512, kernel_size=(3, 3), stride=(1, 1), padding=(1, 1))\n",
              "    (18): ReLU(inplace=True)\n",
              "    (19): Conv2d(512, 512, kernel_size=(3, 3), stride=(1, 1), padding=(1, 1))\n",
              "    (20): ReLU(inplace=True)\n",
              "    (21): Conv2d(512, 512, kernel_size=(3, 3), stride=(1, 1), padding=(1, 1))\n",
              "    (22): ReLU(inplace=True)\n",
              "    (23): MaxPool2d(kernel_size=2, stride=2, padding=0, dilation=1, ceil_mode=False)\n",
              "    (24): Conv2d(512, 512, kernel_size=(3, 3), stride=(1, 1), padding=(1, 1))\n",
              "    (25): ReLU(inplace=True)\n",
              "    (26): Conv2d(512, 512, kernel_size=(3, 3), stride=(1, 1), padding=(1, 1))\n",
              "    (27): ReLU(inplace=True)\n",
              "    (28): Conv2d(512, 512, kernel_size=(3, 3), stride=(1, 1), padding=(1, 1))\n",
              "    (29): ReLU(inplace=True)\n",
              "    (30): MaxPool2d(kernel_size=2, stride=2, padding=0, dilation=1, ceil_mode=False)\n",
              "  )\n",
              "  (avgpool): AdaptiveAvgPool2d(output_size=(7, 7))\n",
              "  (classifier): Sequential(\n",
              "    (0): Linear(in_features=25088, out_features=790, bias=True)\n",
              "    (1): ReLU(inplace=True)\n",
              "    (2): Dropout(p=0.5, inplace=False)\n",
              "    (3): Linear(in_features=790, out_features=3, bias=True)\n",
              "  )\n",
              ")"
            ]
          },
          "metadata": {
            "tags": []
          },
          "execution_count": 32
        }
      ]
    },
    {
      "cell_type": "code",
      "metadata": {
        "id": "5yXZGexXqwuS",
        "colab_type": "code",
        "outputId": "8d37be9f-0d62-4445-9860-7f29e76dca8e",
…
